su.onnx (onnx, 6409 bytes, 6 tensors)

Ad_Addcst1 f4 [16]
0	0x4191e8cb	18.238668
1	0x41b04240	22.032349
2	0x43bfd948	383.6975
3	0x41bf06c2	23.8783
4	0x4163f17c	14.246456
5	0x411379b1	9.21721
6	0x418154c1	16.166384
7	0x416c42e5	14.766332
8	0x4328e8d3	168.90947
9	0x42101868	36.023834
10	0x42028a27	32.634914
11	0x41a5dae1	20.731874
12	0x4242bf57	48.686855
13	0x41397b2e	11.592573
14	0x423fdda2	47.96644
15	0x4387ac96	271.34833

Ge_Gemmcst f4 [40, 16]
0	0x408c5a50	4.3860245
1	0x41cb2764	25.394234
2	0xc1e5bbe3	-28.716742
3	0x4103afb7	8.230399
4	0x417d0fb9	15.816339
5	0x40a713fd	5.22119
6	0x410a2fd7	8.63668
7	0xc0d438cf	-6.6319346
8	0x427da07b	63.40672
9	0x4133ab87	11.229377
10	0xc0814d66	-4.040698
11	0xbe6956e0	-0.22787046
12	0x41616721	14.087678
13	0x40793652	3.8939404
14	0xc23fca61	-47.947636
15	0xc38dc627	-283.54807
16	0x4062ae44	3.5418863
17	0x408ee11a	4.464978
18	0xc16614b7	-14.380057
19	0xbf417129	-0.75563294
20	0x404b72c5	3.17888
21	0xbde422e8	-0.1113947
22	0x3f8ae13d	1.0849987
23	0x3f38f112	0.72242844
24	0xbfecbd64	-1.8495297
25	0x4060c096	3.5117545
26	0x3f88ebbd	1.0696942
27	0xbfbc159a	-1.4694092
28	0xc01d944b	-2.462176
29	0xbe9b0b93	-0.30282268
30	0xc0f45c54	-7.6362705
31	0xc1c599ca	-24.700092
32	0x40b19b9b	5.550245
33	0x3ef36a4e	0.47542042
34	0xc165572f	-14.333785
35	0xc004bc14	-2.0739794
36	0x403621a6	2.8458037
37	0xbfa59977	-1.2937459
38	0xc0205433	-2.505139
39	0x400d0e6d	2.2040055
40	0xc1ad98f1	-21.699678
41	0x4067dc08	3.6228046
42	0x4127c2a7	10.485023
43	0x3f5056d5	0.81382495
44	0xc088b7f0	-4.2724533
45	0xbf1c08ce	-0.60950935
46	0x40c05ea9	6.011555
47	0x41dc12a6	27.509106
48	0x40698398	3.6486568
49	0xbea745c8	-0.32670426
50	0x4191740a	18.18166
51	0xbf1731e0	-0.5906048
52	0x3f9fc2a4	1.2481275
53	0xbe02d158	-0.12775171
54	0xbfdcd3c0	-1.7252121
55	0xbf1f0b2a	-0.6212641
56	0xc146612a	-12.398722
57	0xc013e5ec	-2.3109083
58	0x40d703a0	6.7191925
59	0x40273e2e	2.6131701
60	0xbf17a469	-0.59235245
61	0xbe2e2ef5	-0.170101
62	0x40795f16	3.8964286
63	0x4129704d	10.589917
64	0xbf078dc5	-0.529507
65	0x3ffeddc8	1.9911432
66	0xc23c032b	-47.003094
67	0x400ed2e4	2.2316217
68	0x3fd1e5ee	1.6398294
69	0x3fba20e4	1.4541287
70	0x3f138029	0.5761743
71	0xc0caea8e	-6.341132
72	0x40e7788d	7.2334657
73	0xc00d57e9	-2.2084906
74	0xbf12719f	-0.5720462
75	0xc0af2161	-5.4728246
76	0x406b0335	3.6720707
77	0x3f07a398	0.52984
78	0xc1581a97	-13.506492
79	0xc1ec50e5	-29.5395
80	0x3ed5dbf3	0.4176937
81	0xbf9b9ff8	-1.2158194
82	0x4182ca5c	16.348808
83	0xbf4a21cc	-0.7895782
84	0xbe11e4ff	-0.14247511
85	0x3fad9277	1.3560323
86	0xbf8eabcc	-1.1146178
87	0x3f9451ba	1.1587441
88	0xc014f6bc	-2.3275595
89	0xbff349ab	-1.9006857
90	0x40bbaec8	5.8650856
91	0x402de8b2	2.7173276
92	0xc03d4a8f	-2.9576757
93	0xbe9edb46	-0.31026667
94	0x40c91d1e	6.2848043
95	0x413b3be4	11.702122
96	0xbfd9a9d3	-1.7004951
97	0x3f2615ea	0.6487719
98	0xc165e94c	-14.369457
99	0x3f6c7bda	0.9237648
100	0x3fb62db7	1.4232701
101	0x3fc3c720	1.5295143
102	0xbe3f218a	-0.18665138
103	0xbffff8b7	-1.9997777
104	0x3f8e9477	1.1139058
105	0xbf9da90d	-1.2317215
106	0x3f965701	1.1745301
107	0xc04d5cff	-3.208801
108	0x4004d9a0	2.0757828
109	0x3eb8c782	0.36089712
110	0xc034c42d	-2.8244736
111	0xc1240c14	-10.252949
112	0xbfa7c693	-1.3107475
113	0xbefa1903	-0.48847207
114	0x41481478	12.504997
115	0x3f4523b5	0.7700761
116	0x3e9a63f7	0.30154392
117	0x40188d40	2.3836212
118	0xbfa77cf4	-1.3085008
119	0xc00bfb00	-2.1871948
120	0xc02b4fad	-2.676738
121	0xc08222ba	-4.066739
122	0x405ba042	3.4316564
123	0x3fb8d3f5	1.4439684
124	0x3eedaf4e	0.4642281
125	0x3eaed9d2	0.3415056
126	0x4025443d	2.58229
127	0x40922a2a	4.567647
128	0xbf3857a3	-0.72008723
129	0xbf3e5bf8	-0.74359083
130	0x40a17080	5.044983
131	0x3edaa0c0	0.42700768
132	0xbfa6a886	-1.3020179
133	0x3f233f82	0.6376878
134	0x3efee2f8	0.49782538
135	0xbf4c09c2	-0.7970239
136	0x4088aca1	4.271073
137	0xbf9b5c6c	-1.213758
138	0x3f9c54e0	1.2213402
139	0x3ebc24dc	0.3674687
140	0xbe928c90	-0.28622866
141	0x3e9854aa	0.29752094
142	0x3f61f86e	0.882697
143	0x40b2bd3d	5.5856004
144	0xbe90225e	-0.2815122
145	0xbe82d7a0	-0.25555134
146	0x401baea0	2.4325333
147	0xbe86b1c5	-0.26307502
148	0xbe29eba6	-0.16593799
149	0xbf1d9ed7	-0.61570495
150	0x3e55de72	0.20885637
151	0x3d884606	0.06653981
152	0xbe9e060e	-0.30863994
153	0xbec01091	-0.3751264
154	0x3fedde5f	1.8583487
155	0x3f36107b	0.711189
156	0x3c986d49	0.018606799
157	0x3d4444cd	0.047917176
158	0x3f319484	0.6936724
159	0x3fc44c52	1.5335791
160	0x3e1493b2	0.14509466
161	0x3f74c94a	0.9561964
162	0xc1a15e75	-20.171122
163	0xbec35dde	-0.38157552
164	0x3ff99ea3	1.9501537
165	0xbf3686a6	-0.7129921
166	0x3f1c7f33	0.6113159
167	0x3f07337b	0.5281293
168	0xbe59f79b	-0.2128586
169	0x40670436	3.609632
170	0xbfa5b949	-1.294717
171	0xc0019118	-2.0244808
172	0xbf37e777	-0.7183756
173	0xbe123591	-0.14278246
174	0xc0a7b12c	-5.2403774
175	0xc1983a05	-19.02833
176	0x3fb56ad6	1.4173229
177	0xbcb13e58	-0.021636173
178	0xc0d45e92	-6.636544
179	0xbe518abf	-0.20463084
180	0x3efd9039	0.49524096
181	0xbf048c45	-0.51776534
182	0x3dfa5c4e	0.12224637
183	0x3fa16718	1.2609587
184	0xbf186421	-0.59527785
185	0x3f1bc188	0.6084218
186	0x3db92f20	0.090421915
187	0xbfb32a4b	-1.3997282
188	0xbd696798	-0.05698356
189	0x3d8aa04f	0.06768858
190	0xbf86c72f	-1.0529536
191	0xc0aaa605	-5.332766
192	0x3fcfe0fe	1.6240537
193	0xbf414bd3	-0.75506324
194	0x407003eb	3.7502391
195	0x3cef1754	0.029185928
196	0xbfa353f4	-1.2759995
197	0xbf24f3a0	-0.6443424
198	0x40341f5d	2.8144143
199	0x3fa24ef2	1.2680342
200	0x4071eb0c	3.7799711
201	0x3fe87f4f	1.8163851
202	0xbf4f805f	-0.81055254
203	0xbf45f149	-0.77321297
204	0xbe1d4723	-0.15359168
205	0x3e3d1728	0.18465865
206	0xbfe01503	-1.7506412
207	0xc08cd7e9	-4.401356
208	0x3f7022ff	0.938034
209	0xbdd2bc0e	-0.10289775
210	0xc147cf5a	-12.488123
211	0xbcfa3b19	-0.030545758
212	0x3ee57ee0	0.4482336
213	0xbd393057	-0.045212116
214	0xbdef329a	-0.11679573
215	0xbf27ce94	-0.6554959
216	0xbfbd331e	-1.4781225
217	0x3eef4d77	0.46738788
218	0x3d84a028	0.0647586
219	0xbf156089	-0.58350426
220	0x3f8df4bf	1.1090316
221	0x3e03fa7a	0.12888518
222	0xbf177b9b	-0.5917298
223	0xc026ca5f	-2.6061018
224	0x3f9d347c	1.2281642
225	0xbb4b68a9	-0.0031037724
226	0x3e3e8869	0.18606724
227	0xbf5c4dc9	-0.8605619
228	0x3e2cdae4	0.16880375
229	0x3e2970da	0.16546956
230	0xbfacb6db	-1.3493303
231	0x3edd9aa2	0.43282038
232	0xc01bd89b	-2.4350955
233	0x3ef72b47	0.48275205
234	0x3fc19665	1.5124022
235	0x3f1d9113	0.6154949
236	0xbfe2141f	-1.766239
237	0xbf373d05	-0.71577483
238	0x4014c847	2.324724
239	0x3fd32b70	1.6497631
240	0x3abecf20	0.0014557578
241	0xbe647726	-0.22311077
242	0x410037c2	8.013613
243	0x3f1c11b9	0.6096454
244	0xbf440a9c	-0.7657869
245	0x3e083616	0.13301882
246	0xbda70fae	-0.081572875
247	0xbf7769ae	-0.9664563
248	0x3f14910d	0.5803383
249	0xbfa76115	-1.3076502
250	0x3ee185ee	0.44047493
251	0x3ec0f0ab	0.37683615
252	0x3fe47b2b	1.7850088
253	0x3ddfa3d3	0.10919919
254	0x3f399dc9	0.72506386
255	0x3e50b18b	0.20380227

Ge_Gemmcst1 f4 [16]
0	0x00000000	0.0
1	0x00000000	0.0
2	0x00000000	0.0
3	0x00000000	0.0
4	0x00000000	0.0
5	0x00000000	0.0
6	0x00000000	0.0
7	0x00000000	0.0
8	0x00000000	0.0
9	0x00000000	0.0
10	0x00000000	0.0
11	0x00000000	0.0
12	0x00000000	0.0
13	0x00000000	0.0
14	0x00000000	0.0
15	0x00000000	0.0

Ge_Gemmcst2 f4 [40, 16]
0	0x42ae478e	87.139755
1	0x426b01a6	58.75161
2	0x407b7394	3.9289293
3	0x41e104df	28.127378
4	0x42d4f49e	106.47777
5	0x422d7666	43.365623
6	0x41d211a7	26.25862
7	0x42fb6c17	125.71111
8	0x42bb8978	93.76849
9	0x41d41f1b	26.515188
10	0x42d0bc31	104.36756
11	0x3dedde31	0.11614645
12	0x41c6c206	24.844738
13	0x41a65ca5	20.795237
14	0x436166a5	225.40096
15	0x44311dcc	708.4656
16	0x40e03904	7.00696
17	0x4080f6ec	4.030142
18	0x420d02ab	35.252605
19	0x3fbd8c16	1.4808376
20	0x40b96e07	5.794681
21	0x405b26cb	3.4242427
22	0x4013ec57	2.3113
23	0x40d03001	6.50586
24	0x40602c8e	3.5027194
25	0x40221779	2.5326827
26	0x40d474cc	6.6392574
27	0x3fff6e8a	1.9955609
28	0x3f92bfba	1.146476
29	0x3f8ef4b9	1.1168433
30	0x415e4b1f	13.89334
31	0x42001670	32.02191
32	0x40e7d53a	7.2447786
33	0x402d7fd0	2.710926
34	0x4244d40e	49.207085
35	0x3fe5c1b2	1.7949736
36	0x40c194e0	6.049423
37	0x4054e73f	3.3266141
38	0x4030007c	2.7500296
39	0x40abc9f7	5.368404
40	0x410c94c9	8.7863245
41	0x40b9b270	5.803032
42	0x413fba60	11.983002
43	0x406f6b76	3.740934
44	0x3ffadbdb	1.9598345
45	0x3fa16a71	1.2610608
46	0x415102b3	13.063159
47	0x42308e5f	44.139034
48	0x40a9890c	5.2979794
49	0x3fa4d153	1.2876381
50	0x41b3eaf8	22.48973
51	0x3f9a2e49	1.2045375
52	0x401b34ea	2.4251046
53	0x3ff5650e	1.9171464
54	0x3f9d7cf5	1.2303759
55	0x4088a940	4.2706604
56	0x409167e3	4.5439315
57	0x40528e80	3.2899475
58	0x40b20a1a	5.563733
59	0x40901412	4.50245
60	0x3fc8159d	1.5631596
61	0x3f78b4d0	0.971509
62	0x40f47f83	7.6405654
63	0x41521454	13.129963
64	0x4078a297	3.8849237
65	0x406a13e8	3.657465
66	0x423cb0e9	47.172764
67	0x3ff5473d	1.9162365
68	0x40c57dbb	6.171598
69	0x4008b153	2.135823
70	0x3feffd04	1.8749089
71	0x40e4efef	7.154289
72	0x4091723a	4.5451937
73	0x409627f6	4.692378
74	0x40cc69e8	6.387928
75	0x40b0235a	5.5043154
76	0x3fed9573	1.8561233
77	0x3f975cf3	1.1825241
78	0x4179233c	15.571102
79	0x41c59b51	24.700838
80	0x4037cbc8	2.8718128
81	0x3fcc03ff	1.593872
82	0x4150cf14	13.050556
83	0x3f9e3b5a	1.2361863
84	0x400695c0	2.10289
85	0x40374ba5	2.863992
86	0x3fcee923	1.6164898
87	0x406bc94f	3.684162
88	0x400ece29	2.231333
89	0x400f61a1	2.2403338
90	0x40ab5daa	5.3551836
91	0x40274f62	2.6142201
92	0x3ff7258f	1.9308337
93	0x3f90b021	1.130375
94	0x410d1f25	8.820104
95	0x4113c6f0	9.236069
96	0x4042bd59	3.0428069
97	0x3f79dbf5	0.9760125
98	0x4145e4af	12.368331
99	0x3fb78268	1.4336672
100	0x40098960	2.1490097
101	0x3faed1d4	1.3657784
102	0x4004a6b6	2.0726752
103	0x4031a7f4	2.775876
104	0x403efc0a	2.9841332
105	0x4000d89a	2.0132203
106	0x4082deaa	4.0896807
107	0x4062f68b	3.5462978
108	0x3fd1f2ee	1.6402261
109	0x3f964840	1.1740799
110	0x4087a6f5	4.2391305
111	0x41160b25	9.377721
112	0x40432018	3.0488338
113	0x3f6f16c7	0.9339413
114	0x4129cff6	10.613272
115	0x3fb3a9df	1.4036216
116	0x3fc28597	1.5197018
117	0x4019bac3	2.402024
118	0x400869b7	2.1314523
119	0x409087f4	4.516596
120	0x40a00875	5.0010324
121	0x400b580c	2.177249
122	0x40928298	4.5784416
123	0x401439d9	2.3160307
124	0x3fcdf6b8	1.6090918
125	0x3fa058f4	1.2527146
126	0x40cbd4e6	6.3697386
127	0x40dc49b0	6.883995
128	0x402891b7	2.6338937
129	0x3f8707b0	1.0549221
130	0x4164d73e	14.302549
131	0x3f36bfd4	0.71386456
132	0x3fe5f722	1.7966044
133	0x3f8f6717	1.1203336
134	0x3f600772	0.8751136
135	0x406a46d2	3.6605725
136	0x4012c688	2.2933674
137	0x3fa73528	1.3063097
138	0x40364fe6	2.8486266
139	0x4003af8c	2.0575895
140	0x3f7282c5	0.9473079
141	0x3f4195c0	0.75619125
142	0x40837235	4.1076913
143	0x4110543b	9.020564
144	0x400b08fb	2.1724231
145	0x3f38a891	0.7213221
146	0x409e1d75	4.941096
147	0x3f3802e8	0.71879435
148	0x3f95dbb3	1.1707672
149	0x3fac8af3	1.3479904
150	0x3f9f3aa2	1.2439768
151	0x40156a1a	2.334601
152	0x3f38a902	0.72132885
153	0x3f6bcee5	0.9211257
154	0x4008a9d5	2.1353657
155	0x400c0037	2.187513
156	0x3eab20c7	0.33423445
157	0x3f419ff9	0.75634724
158	0x4041550b	3.0208156
159	0x4091349d	4.5376725
160	0x40275d7b	2.6150806
161	0x3f8f619f	1.1201667
162	0x41c41eca	24.515034
163	0x4005ccfa	2.0906358
164	0x3ff88e8d	1.9418503
165	0x403fbd25	2.9959195
166	0x3fc751bc	1.5571818
167	0x3ffcd8ca	1.9753659
168	0x40010373	2.0158355
169	0x4036a8ee	2.8540606
170	0x4053aa17	3.3072565
171	0x4023998d	2.556247
172	0x3fa13075	1.2592913
173	0x3fb9123b	1.4458688
174	0x40c15483	6.0415664
175	0x417b57de	15.708952
176	0x4002fe78	2.0467815
177	0x3ec6d3fb	0.38833603
178	0x40b20e70	5.5642624
179	0x3fa3e384	1.2803807
180	0x3f96d696	1.1784236
181	0x3f9e4beb	1.2366918
182	0x3f80ad2b	1.0052847
183	0x400472a8	2.069498
184	0x3f987565	1.1910826
185	0x3f81f0c2	1.0151598
186	0x3ff9ef98	1.9526243
187	0x3fdba5eb	1.7160009
188	0x3fd3c18d	1.6543442
189	0x3f8ad92d	1.0847527
190	0x40440b79	3.0632002
191	0x40afb7d6	5.491191
192	0x40141620	2.3138504
193	0x3f7ac20b	0.97952336
194	0x4306179d	134.09224
195	0x3fbfbb2d	1.4978997
196	0x3fe415fc	1.7819209
197	0x3f975867	1.1823853
198	0x401b8acc	2.4303465
199	0x400cb986	2.1988235
200	0x40256e04	2.5848398
201	0x3fba67a6	1.4562881
202	0x40272291	2.6114848
203	0x4038a97c	2.8853445
204	0x4011cb5b	2.2780368
205	0x3f6b6e7f	0.9196548
206	0x408c888d	4.391669
207	0x410bd6a4	8.7399025
208	0x3fcc8a06	1.5979621
209	0x3eefaa42	0.46809584
210	0x4259a45c	54.410507
211	0x3f59b3b8	0.85039854
212	0x3f8042a6	1.002034
213	0x3f88c837	1.0686101
214	0x3f60fa4a	0.8788191
215	0x3fc5b9f7	1.5447377
216	0x3fb754c9	1.4322749
217	0x3f76bd64	0.9638274
218	0x402e9f3b	2.7284687
219	0x400a5c12	2.1618695
220	0x3fbced83	1.4759983
221	0x3f675380	0.90361786
222	0x401fc4dc	2.4963903
223	0x40b39872	5.612359
224	0x3ff48c5d	1.9105335
225	0x3f2fa658	0.68613195
226	0x40b969d1	5.794167
227	0x3f87a768	1.0597963
228	0x3fa69628	1.3014574
229	0x3fca527c	1.5806422
230	0x3fca8152	1.5820715
231	0x400c62ca	2.1935296
232	0x3fbbffe1	1.4687463
233	0x3fab5e07	1.338807
234	0x4062d584	3.544282
235	0x3ff0e0c6	1.8818595
236	0x3f9c3683	1.2204136
237	0x3fabac1b	1.3411897
238	0x409a0bcc	4.81394
239	0x402a93c3	2.6652687
240	0x3fefb4c1	1.8727037
241	0x3f77ab1d	0.96745473
242	0x414c56ff	12.771239
243	0x3f55ea29	0.83560425
244	0x3f8faa11	1.1223775
245	0x3fccbcf8	1.5995169
246	0x3fa6563e	1.2995069
247	0x40024097	2.0351923
248	0x4000af7e	2.0107112
249	0x3fae2670	1.360548
250	0x40566fe7	3.35058
251	0x4013937e	2.3058772
252	0x3f849421	1.0357705
253	0x3f676824	0.9039328
254	0x407f0b43	3.9850624
255	0x401586e3	2.3363578

Ad_Addcst2 f4 [16]
0	0x423521e5	45.2831
1	0x420b6cb4	34.856155
2	0x4326448e	166.26779
3	0x420a992b	34.64958
4	0x4232f1db	44.736187
5	0x4230d62a	44.209145
6	0x4224b07e	41.172356
7	0x42537d40	52.872314
8	0x423a95a4	46.646133
9	0x42317254	44.36165
10	0x425d56b1	55.33466
11	0x420b0000	34.75
12	0x421f2a85	39.791523
13	0x41e49247	28.571424
14	0x427631e5	61.548725
15	0x42889c88	68.305725

Ad_Addcst3 f4 [16]
0	0xc04bcc6d	-3.1843522
1	0xc01beaba	-2.4362016
2	0xc08c5cef	-4.3863444
3	0xc04f5ff0	-3.2402306
4	0xc0156a6f	-2.3346212
5	0xc03403ac	-2.812724
6	0xc03a9a0f	-2.915653
7	0xc0225c60	-2.5368881
8	0xc067e292	-3.6232038
9	0xc01fe965	-2.4986203
10	0xc03649ca	-2.8482537
11	0xc080bbeb	-4.022939
12	0xc035a71a	-2.838324
13	0xc038bf63	-2.8866813
14	0xbfce59c4	-1.6121144
15	0xc05ea66b	-3.4789073
